Loading data...
Time usage: 0:00:34
<bound method Module.parameters of Model(
  (xlnet): XLNetModel(
    (word_embedding): Embedding(32000, 768)
    (layer): ModuleList(
      (0): XLNetLayer(
        (rel_attn): XLNetRelativeAttention(
          (layer_norm): LayerNorm((768,), eps=1e-12, elementwise_affine=True)
          (dropout): Dropout(p=0.1, inplace=False)
        )
        (ff): XLNetFeedForward(
          (layer_norm): LayerNorm((768,), eps=1e-12, elementwise_affine=True)
          (layer_1): Linear(in_features=768, out_features=3072, bias=True)
          (layer_2): Linear(in_features=3072, out_features=768, bias=True)
          (dropout): Dropout(p=0.1, inplace=False)
        )
        (dropout): Dropout(p=0.1, inplace=False)
      )
      (1): XLNetLayer(
        (rel_attn): XLNetRelativeAttention(
          (layer_norm): LayerNorm((768,), eps=1e-12, elementwise_affine=True)
          (dropout): Dropout(p=0.1, inplace=False)
        )
        (ff): XLNetFeedForward(
          (layer_norm): LayerNorm((768,), eps=1e-12, elementwise_affine=True)
          (layer_1): Linear(in_features=768, out_features=3072, bias=True)
          (layer_2): Linear(in_features=3072, out_features=768, bias=True)
          (dropout): Dropout(p=0.1, inplace=False)
        )
        (dropout): Dropout(p=0.1, inplace=False)
      )
      (2): XLNetLayer(
        (rel_attn): XLNetRelativeAttention(
          (layer_norm): LayerNorm((768,), eps=1e-12, elementwise_affine=True)
          (dropout): Dropout(p=0.1, inplace=False)
        )
        (ff): XLNetFeedForward(
          (layer_norm): LayerNorm((768,), eps=1e-12, elementwise_affine=True)
          (layer_1): Linear(in_features=768, out_features=3072, bias=True)
          (layer_2): Linear(in_features=3072, out_features=768, bias=True)
          (dropout): Dropout(p=0.1, inplace=False)
        )
        (dropout): Dropout(p=0.1, inplace=False)
      )
      (3): XLNetLayer(
        (rel_attn): XLNetRelativeAttention(
          (layer_norm): LayerNorm((768,), eps=1e-12, elementwise_affine=True)
          (dropout): Dropout(p=0.1, inplace=False)
        )
        (ff): XLNetFeedForward(
          (layer_norm): LayerNorm((768,), eps=1e-12, elementwise_affine=True)
          (layer_1): Linear(in_features=768, out_features=3072, bias=True)
          (layer_2): Linear(in_features=3072, out_features=768, bias=True)
          (dropout): Dropout(p=0.1, inplace=False)
        )
        (dropout): Dropout(p=0.1, inplace=False)
      )
      (4): XLNetLayer(
        (rel_attn): XLNetRelativeAttention(
          (layer_norm): LayerNorm((768,), eps=1e-12, elementwise_affine=True)
          (dropout): Dropout(p=0.1, inplace=False)
        )
        (ff): XLNetFeedForward(
          (layer_norm): LayerNorm((768,), eps=1e-12, elementwise_affine=True)
          (layer_1): Linear(in_features=768, out_features=3072, bias=True)
          (layer_2): Linear(in_features=3072, out_features=768, bias=True)
          (dropout): Dropout(p=0.1, inplace=False)
        )
        (dropout): Dropout(p=0.1, inplace=False)
      )
      (5): XLNetLayer(
        (rel_attn): XLNetRelativeAttention(
          (layer_norm): LayerNorm((768,), eps=1e-12, elementwise_affine=True)
          (dropout): Dropout(p=0.1, inplace=False)
        )
        (ff): XLNetFeedForward(
          (layer_norm): LayerNorm((768,), eps=1e-12, elementwise_affine=True)
          (layer_1): Linear(in_features=768, out_features=3072, bias=True)
          (layer_2): Linear(in_features=3072, out_features=768, bias=True)
          (dropout): Dropout(p=0.1, inplace=False)
        )
        (dropout): Dropout(p=0.1, inplace=False)
      )
      (6): XLNetLayer(
        (rel_attn): XLNetRelativeAttention(
          (layer_norm): LayerNorm((768,), eps=1e-12, elementwise_affine=True)
          (dropout): Dropout(p=0.1, inplace=False)
        )
        (ff): XLNetFeedForward(
          (layer_norm): LayerNorm((768,), eps=1e-12, elementwise_affine=True)
          (layer_1): Linear(in_features=768, out_features=3072, bias=True)
          (layer_2): Linear(in_features=3072, out_features=768, bias=True)
          (dropout): Dropout(p=0.1, inplace=False)
        )
        (dropout): Dropout(p=0.1, inplace=False)
      )
      (7): XLNetLayer(
        (rel_attn): XLNetRelativeAttention(
          (layer_norm): LayerNorm((768,), eps=1e-12, elementwise_affine=True)
          (dropout): Dropout(p=0.1, inplace=False)
        )
        (ff): XLNetFeedForward(
          (layer_norm): LayerNorm((768,), eps=1e-12, elementwise_affine=True)
          (layer_1): Linear(in_features=768, out_features=3072, bias=True)
          (layer_2): Linear(in_features=3072, out_features=768, bias=True)
          (dropout): Dropout(p=0.1, inplace=False)
        )
        (dropout): Dropout(p=0.1, inplace=False)
      )
      (8): XLNetLayer(
        (rel_attn): XLNetRelativeAttention(
          (layer_norm): LayerNorm((768,), eps=1e-12, elementwise_affine=True)
          (dropout): Dropout(p=0.1, inplace=False)
        )
        (ff): XLNetFeedForward(
          (layer_norm): LayerNorm((768,), eps=1e-12, elementwise_affine=True)
          (layer_1): Linear(in_features=768, out_features=3072, bias=True)
          (layer_2): Linear(in_features=3072, out_features=768, bias=True)
          (dropout): Dropout(p=0.1, inplace=False)
        )
        (dropout): Dropout(p=0.1, inplace=False)
      )
      (9): XLNetLayer(
        (rel_attn): XLNetRelativeAttention(
          (layer_norm): LayerNorm((768,), eps=1e-12, elementwise_affine=True)
          (dropout): Dropout(p=0.1, inplace=False)
        )
        (ff): XLNetFeedForward(
          (layer_norm): LayerNorm((768,), eps=1e-12, elementwise_affine=True)
          (layer_1): Linear(in_features=768, out_features=3072, bias=True)
          (layer_2): Linear(in_features=3072, out_features=768, bias=True)
          (dropout): Dropout(p=0.1, inplace=False)
        )
        (dropout): Dropout(p=0.1, inplace=False)
      )
      (10): XLNetLayer(
        (rel_attn): XLNetRelativeAttention(
          (layer_norm): LayerNorm((768,), eps=1e-12, elementwise_affine=True)
          (dropout): Dropout(p=0.1, inplace=False)
        )
        (ff): XLNetFeedForward(
          (layer_norm): LayerNorm((768,), eps=1e-12, elementwise_affine=True)
          (layer_1): Linear(in_features=768, out_features=3072, bias=True)
          (layer_2): Linear(in_features=3072, out_features=768, bias=True)
          (dropout): Dropout(p=0.1, inplace=False)
        )
        (dropout): Dropout(p=0.1, inplace=False)
      )
      (11): XLNetLayer(
        (rel_attn): XLNetRelativeAttention(
          (layer_norm): LayerNorm((768,), eps=1e-12, elementwise_affine=True)
          (dropout): Dropout(p=0.1, inplace=False)
        )
        (ff): XLNetFeedForward(
          (layer_norm): LayerNorm((768,), eps=1e-12, elementwise_affine=True)
          (layer_1): Linear(in_features=768, out_features=3072, bias=True)
          (layer_2): Linear(in_features=3072, out_features=768, bias=True)
          (dropout): Dropout(p=0.1, inplace=False)
        )
        (dropout): Dropout(p=0.1, inplace=False)
      )
    )
    (dropout): Dropout(p=0.1, inplace=False)
  )
  (fc): Linear(in_features=768, out_features=4, bias=True)
)>
Iter:      0,  Train Loss:   2.3,  Train Acc: 23.44%,  Val Loss:   1.7,  Val Acc: 23.05%,  Time: 0:00:08 *
Iter:    100,  Train Loss:  0.49,  Train Acc: 85.94%,  Val Loss:  0.34,  Val Acc: 88.28%,  Time: 0:00:36 *
Iter:    200,  Train Loss:  0.18,  Train Acc: 93.75%,  Val Loss:  0.32,  Val Acc: 89.18%,  Time: 0:01:05 *
Iter:    300,  Train Loss:   0.2,  Train Acc: 92.19%,  Val Loss:   0.3,  Val Acc: 89.43%,  Time: 0:01:32 *
…
