Loading data...
114000it [00:28, 3989.06it/s]
6000it [00:01, 3789.85it/s]
7600it [00:01, 4172.92it/s]
Time usage: 0:00:32
<bound method Module.parameters of Model(
  (xlnet): XLNetModel(
    (word_embedding): Embedding(32000, 768)
    (layer): ModuleList(
      (0): XLNetLayer(
        (rel_attn): XLNetRelativeAttention(
          (layer_norm): LayerNorm((768,), eps=1e-12, elementwise_affine=True)
          (dropout): Dropout(p=0.1, inplace=False)
        )
        (ff): XLNetFeedForward(
          (layer_norm): LayerNorm((768,), eps=1e-12, elementwise_affine=True)
          (layer_1): Linear(in_features=768, out_features=3072, bias=True)
          (layer_2): Linear(in_features=3072, out_features=768, bias=True)
          (dropout): Dropout(p=0.1, inplace=False)
        )
        (dropout): Dropout(p=0.1, inplace=False)
      )
      (1): XLNetLayer(
        (rel_attn): XLNetRelativeAttention(
          (layer_norm): LayerNorm((768,), eps=1e-12, elementwise_affine=True)
          (dropout): Dropout(p=0.1, inplace=False)
        )
        (ff): XLNetFeedForward(
          (layer_norm): LayerNorm((768,), eps=1e-12, elementwise_affine=True)
          (layer_1): Linear(in_features=768, out_features=3072, bias=True)
          (layer_2): Linear(in_features=3072, out_features=768, bias=True)
          (dropout): Dropout(p=0.1, inplace=False)
        )
        (dropout): Dropout(p=0.1, inplace=False)
      )
      (2): XLNetLayer(
        (rel_attn): XLNetRelativeAttention(
          (layer_norm): LayerNorm((768,), eps=1e-12, elementwise_affine=True)
          (dropout): Dropout(p=0.1, inplace=False)
        )
        (ff): XLNetFeedForward(
          (layer_norm): LayerNorm((768,), eps=1e-12, elementwise_affine=True)
          (layer_1): Linear(in_features=768, out_features=3072, bias=True)
          (layer_2): Linear(in_features=3072, out_features=768, bias=True)
          (dropout): Dropout(p=0.1, inplace=False)
        )
        (dropout): Dropout(p=0.1, inplace=False)
      )
      (3): XLNetLayer(
        (rel_attn): XLNetRelativeAttention(
          (layer_norm): LayerNorm((768,), eps=1e-12, elementwise_affine=True)
          (dropout): Dropout(p=0.1, inplace=False)
        )
        (ff): XLNetFeedForward(
          (layer_norm): LayerNorm((768,), eps=1e-12, elementwise_affine=True)
          (layer_1): Linear(in_features=768, out_features=3072, bias=True)
          (layer_2): Linear(in_features=3072, out_features=768, bias=True)
          (dropout): Dropout(p=0.1, inplace=False)
        )
        (dropout): Dropout(p=0.1, inplace=False)
      )
      (4): XLNetLayer(
        (rel_attn): XLNetRelativeAttention(
          (layer_norm): LayerNorm((768,), eps=1e-12, elementwise_affine=True)
          (dropout): Dropout(p=0.1, inplace=False)
        )
        (ff): XLNetFeedForward(
          (layer_norm): LayerNorm((768,), eps=1e-12, elementwise_affine=True)
          (layer_1): Linear(in_features=768, out_features=3072, bias=True)
          (layer_2): Linear(in_features=3072, out_features=768, bias=True)
          (dropout): Dropout(p=0.1, inplace=False)
        )
        (dropout): Dropout(p=0.1, inplace=False)
      )
      (5): XLNetLayer(
        (rel_attn): XLNetRelativeAttention(
          (layer_norm): LayerNorm((768,), eps=1e-12, elementwise_affine=True)
          (dropout): Dropout(p=0.1, inplace=False)
        )
        (ff): XLNetFeedForward(
          (layer_norm): LayerNorm((768,), eps=1e-12, elementwise_affine=True)
          (layer_1): Linear(in_features=768, out_features=3072, bias=True)
          (layer_2): Linear(in_features=3072, out_features=768, bias=True)
          (dropout): Dropout(p=0.1, inplace=False)
        )
        (dropout): Dropout(p=0.1, inplace=False)
      )
      (6): XLNetLayer(
        (rel_attn): XLNetRelativeAttention(
          (layer_norm): LayerNorm((768,), eps=1e-12, elementwise_affine=True)
          (dropout): Dropout(p=0.1, inplace=False)
        )
        (ff): XLNetFeedForward(
          (layer_norm): LayerNorm((768,), eps=1e-12, elementwise_affine=True)
          (layer_1): Linear(in_features=768, out_features=3072, bias=True)
          (layer_2): Linear(in_features=3072, out_features=768, bias=True)
          (dropout): Dropout(p=0.1, inplace=False)
        )
        (dropout): Dropout(p=0.1, inplace=False)
      )
      (7): XLNetLayer(
        (rel_attn): XLNetRelativeAttention(
          (layer_norm): LayerNorm((768,), eps=1e-12, elementwise_affine=True)
          (dropout): Dropout(p=0.1, inplace=False)
        )
        (ff): XLNetFeedForward(
          (layer_norm): LayerNorm((768,), eps=1e-12, elementwise_affine=True)
          (layer_1): Linear(in_features=768, out_features=3072, bias=True)
          (layer_2): Linear(in_features=3072, out_features=768, bias=True)
          (dropout): Dropout(p=0.1, inplace=False)
        )
        (dropout): Dropout(p=0.1, inplace=False)
      )
      (8): XLNetLayer(
        (rel_attn): XLNetRelativeAttention(
          (layer_norm): LayerNorm((768,), eps=1e-12, elementwise_affine=True)
          (dropout): Dropout(p=0.1, inplace=False)
        )
        (ff): XLNetFeedForward(
          (layer_norm): LayerNorm((768,), eps=1e-12, elementwise_affine=True)
          (layer_1): Linear(in_features=768, out_features=3072, bias=True)
          (layer_2): Linear(in_features=3072, out_features=768, bias=True)
          (dropout): Dropout(p=0.1, inplace=False)
        )
        (dropout): Dropout(p=0.1, inplace=False)
      )
      (9): XLNetLayer(
        (rel_attn): XLNetRelativeAttention(
          (layer_norm): LayerNorm((768,), eps=1e-12, elementwise_affine=True)
          (dropout): Dropout(p=0.1, inplace=False)
        )
        (ff): XLNetFeedForward(
          (layer_norm): LayerNorm((768,), eps=1e-12, elementwise_affine=True)
          (layer_1): Linear(in_features=768, out_features=3072, bias=True)
          (layer_2): Linear(in_features=3072, out_features=768, bias=True)
          (dropout): Dropout(p=0.1, inplace=False)
        )
        (dropout): Dropout(p=0.1, inplace=False)
      )
      (10): XLNetLayer(
        (rel_attn): XLNetRelativeAttention(
          (layer_norm): LayerNorm((768,), eps=1e-12, elementwise_affine=True)
          (dropout): Dropout(p=0.1, inplace=False)
        )
        (ff): XLNetFeedForward(
          (layer_norm): LayerNorm((768,), eps=1e-12, elementwise_affine=True)
          (layer_1): Linear(in_features=768, out_features=3072, bias=True)
          (layer_2): Linear(in_features=3072, out_features=768, bias=True)
          (dropout): Dropout(p=0.1, inplace=False)
        )
        (dropout): Dropout(p=0.1, inplace=False)
      )
      (11): XLNetLayer(
        (rel_attn): XLNetRelativeAttention(
          (layer_norm): LayerNorm((768,), eps=1e-12, elementwise_affine=True)
          (dropout): Dropout(p=0.1, inplace=False)
        )
        (ff): XLNetFeedForward(
          (layer_norm): LayerNorm((768,), eps=1e-12, elementwise_affine=True)
          (layer_1): Linear(in_features=768, out_features=3072, bias=True)
          (layer_2): Linear(in_features=3072, out_features=768, bias=True)
          (dropout): Dropout(p=0.1, inplace=False)
        )
        (dropout): Dropout(p=0.1, inplace=False)
      )
    )
    (dropout): Dropout(p=0.1, inplace=False)
  )
  (fc): Linear(in_features=768, out_features=4, bias=True)
)>
Epoch:   0%|                                                                                                                                                              | 0/5 [00:00<?, ?it/s]Iter:      0,  Train Loss:   2.6,  Train Acc: 21.88%,  Val Loss:   1.7,  Val Acc: 23.23%,  Time: 0:00:15 *
Iter:    100,  Train Loss:  0.18,  Train Acc: 95.31%,  Val Loss:  0.35,  Val Acc: 88.63%,  Time: 0:01:06 *
…
